Epoch: 500

Model: "sequential"
_________________________________________________________________
 Layer (type)                Output Shape              Param #   
=================================================================
 lstm (LSTM)                 (None, 30, 128)           916992    
                                                                 
 lstm_1 (LSTM)               (None, 30, 128)           131584    
                                                                 
 lstm_2 (LSTM)               (None, 64)                49408     
                                                                 
 dense (Dense)               (None, 64)                4160      
                                                                 
 dense_1 (Dense)             (None, 32)                2080      
                                                                 
 dense_2 (Dense)             (None, 46)                1518      
                                                                 
=================================================================
Total params: 1,105,742
Trainable params: 1,105,742
Non-trainable params: 0
_________________________________________________________________
None
15/15 [==============================] - 1s 19ms/step
V
R
15/15 [==============================] - 0s 19ms/step
[[[445   0]
…
